src/turtlebot3_nodes/model/keypoint_classifier/keypoint_classifier.tflite (tflite, 6600 bytes, 6 tensors)

arith.constant f4 [5, 10]
0	0xbf605f53	-0.87645453
1	0xbee61f09	-0.44945553
2	0xbe951c80	-0.29123306
3	0x3ee9e758	0.45684314
4	0x3e71d8ac	0.2361781
5	0xbf094bbe	-0.536312
6	0x3e17ce33	0.14824753
7	0x3f682cac	0.90693164
8	0xbeaa209c	-0.33228004
9	0xbf418fc4	-0.75609994
10	0xbe4904b3	-0.19630699
11	0xbea536ac	-0.32268274
12	0xbe7d8a13	-0.24759702
13	0xbf0d4d83	-0.551964
14	0x3e01e141	0.12683584
15	0x3e54c7c5	0.20779331
16	0xbf35bb9d	-0.709894
17	0x3dba80c0	0.09106588
18	0xbcbf1c66	-0.023328971
19	0x3f0f0ad6	0.5587591
20	0x3f62ba8e	0.8856591
21	0xbef256c3	-0.4733182
22	0xbf663aad	-0.8993328
23	0x3f18a8bf	0.59632486
24	0xbeb6a593	-0.35673198
25	0xbf49e364	-0.78862596
26	0xbe91c539	-0.2847078
27	0xbe6c8a91	-0.23099734
28	0xbd9838ee	-0.074327335
29	0xbdd553fa	-0.10416408
30	0x3d82d8a7	0.063889794
31	0x3bffc606	0.0078055887
32	0x3f3ca83b	0.736942
33	0xbe9a0435	-0.30081335
34	0x3f585514	0.8450482
35	0x3d1ac87a	0.037788846
36	0x3ec2a97f	0.3801994
37	0xbf4db67e	-0.80356586
38	0xbf70749b	-0.93927926
39	0xbf4b214f	-0.793477
40	0xbd73bc89	-0.059505973
41	0xbf438fd2	-0.7639133
42	0x3e5c338e	0.21504042
43	0x3ee56392	0.4480253
44	0xbf325923	-0.6966726
45	0x3f3e3903	0.7430574
46	0x3f151014	0.5822766
47	0xbe364b00	-0.17802048
48	0xbf9638ed	-1.1736122
49	0xbf43e349	-0.76518685

arith.constant1 f4 [10, 20]
0	0x3e9de4cf	0.3083863
1	0x3e33c665	0.1755615
2	0x3cdd8aa7	0.027043654
3	0x3ec88c13	0.39169368
4	0xbcbdc2d6	-0.023164194
5	0xbf0d0751	-0.5508929
6	0x3ec63fd8	0.38720584
7	0xbd60e098	-0.05490169
8	0x3eaa8b78	0.3330953
9	0xbd28d6d7	-0.041220512
10	0x3f90857f	1.129074
11	0xbf1ce0e5	-0.6128066
12	0x3ec8546c	0.3912691
13	0x3f2e4fe8	0.6809068
14	0xbde0a27f	-0.10968494
15	0x3e2ba3b8	0.16761672
16	0x3eb96700	0.36211395
17	0x3ef3e32c	0.47634256
18	0xbf1b98a5	-0.6077979
19	0x3f19899f	0.5997562
20	0x3e4173fe	0.18891904
21	0xbe6d0746	-0.23147306
22	0xbe2abe72	-0.16674212
23	0xbdae92b2	-0.08524074
24	0xbef6f81d	-0.4823617
25	0xbea673fb	-0.3251036
26	0xbe04e6af	-0.12978624
27	0xbdb05c7f	-0.08611392
28	0x3ea6047a	0.3242529
29	0xbed51bae	-0.4162268
30	0x3ee3f699	0.44524077
31	0x3cddcd07	0.027075304
32	0xbdae1e99	-0.0850193
33	0xbdad4173	-0.08459749
34	0x3f19750f	0.5994424
35	0x3cfe4487	0.031038536
36	0xbe8d5939	-0.27607134
37	0x3af8e177	0.0018988092
38	0x3f045954	0.51698804
39	0xbe1967f1	-0.14981057
40	0xbe24a48a	-0.16078392
41	0xbdec447c	-0.115365
42	0xbe39b68f	-0.18136047
43	0xbe8e059d	-0.27738658
44	0xbe3f1fd2	-0.18664482
45	0xbf1dd2a5	-0.61649543
46	0xbe7faf04	-0.24969107
47	0xbe988689	-0.29790142
48	0x3e4d3633	0.20040207
49	0x3ef66780	0.4812584
50	0x3e455216	0.19269595
51	0x3e5f86d7	0.21828781
52	0x3ee8ec91	0.45492986
53	0xbe1c41b8	-0.15259445
54	0x3f1e7720	0.6190052
55	0x3f268cfa	0.65058863
56	0xbdd21160	-0.1025722
57	0x3ee30102	0.44336706
58	0xbe1073ea	-0.14106718
59	0xbe85331e	-0.26015562
60	0x3c9b7398	0.018976018
61	0x3f53457b	0.82527894
62	0x3eac0a36	0.3360154
63	0xbde7628a	-0.11298092
64	0x3f13383a	0.5750767
65	0x3ebf0dd0	0.37315226
66	0x3f3d7fb9	0.74023014
67	0x3c8acda8	0.016943768
68	0x3f165165	0.5871795
69	0x3e4b2173	0.19836979
70	0x3f2c77cc	0.67370296
71	0xba938dc0	-0.0011257455
72	0x3bddfaad	0.0067742676
73	0x3f6d6a43	0.9274027
74	0xbdec9411	-0.11551679
75	0x3d5d8dd0	0.05409032
76	0x3f126bc7	0.57195705
77	0x3d5a9d59	0.053372715
78	0xbda0d46a	-0.07853015
79	0xbec41c28	-0.38302732
80	0xbe318b28	-0.1733824
81	0xbe9b3ccd	-0.30319825
82	0xbdcab27c	-0.098973244
83	0x3d79c35c	0.060977325
84	0x3eb8b236	0.36073464
85	0xbef01b4b	-0.46895823
86	0x3dddaf56	0.10824458
87	0x3f0626bc	0.52402854
88	0x3ec03211	0.37538198
89	0x3e9b4928	0.3032925
90	0x3f08cfbe	0.5344199
91	0x3f422281	0.758339
92	0xbe7f097b	-0.2490596
93	0xbeecbe6d	-0.46239033
94	0x3f2da79d	0.6783388
95	0xbe8f3e70	-0.27977324
96	0x3d830ae2	0.0639856
97	0x3ee2f73e	0.44329256
98	0x3f10355f	0.5633144
99	0xbed39004	-0.41320813
100	0xbdfd818c	-0.12378225
101	0xbdb0b4fa	-0.086282685
102	0xbe16ce71	-0.14727189
103	0x3e4ef291	0.20209719
104	0xbefe08bf	-0.49616048
105	0x3f471ef6	0.7778162
106	0x3e3ba3a4	0.18324143
107	0x3ecc1261	0.39857772
108	0x3e1b87f0	0.15188575
109	0x3dd4a205	0.10382465
110	0x3ddc21a0	0.10748601
111	0x3e59f9c5	0.21286686
112	0x3f27bcb3	0.6552231
113	0x3f1b789e	0.6073092
114	0xbd4f19f0	-0.050561845
115	0x3f1c0847	0.6095013
116	0xbdbcbe69	-0.09216005
117	0x3e570305	0.20997246
118	0xbe9c3bb8	-0.30514312
119	0x3f469e0a	0.775849
120	0xbee3d447	-0.44497892
121	0x3eb3018e	0.34962124
122	0xbf2b376d	-0.6688145
123	0xbef87a45	-0.48530784
124	0xbec27403	-0.37979135
125	0xbcd7d8cc	-0.026348494
126	0x3e6b4660	0.22976065
127	0x3f30e121	0.6909352
128	0x3f08c709	0.53428704
129	0x3eddd593	0.43327007
130	0xbe0668f8	-0.1312598
131	0xbe12316a	-0.14276662
132	0x3f0745af	0.52840704
133	0x3e86940f	0.26284835
134	0x3f00c67b	0.5030286
135	0x3ef85588	0.48502755
136	0x3e271807	0.1631776
137	0xbdfca015	-0.12335221
138	0x3ed4074a	0.4141181
139	0x3e8f8258	0.28029132
140	0x3d98e2ec	0.07465157
141	0x3ebe386b	0.37152418
142	0xbd3b1830	-0.045677364
143	0x3ca76141	0.020432116
144	0x3e81cc85	0.2535135
145	0x3f18a1bc	0.5962179
146	0x3ea4555c	0.32096374
147	0x3e28c230	0.16480327
148	0x3e5cf7ec	0.2157895
149	0x3e80b814	0.2514044
150	0xbe986594	-0.29764998
151	0x3e9797fc	0.29608142
152	0xbf63254b	-0.8872878
153	0x3db734fc	0.08945653
154	0x3e5f2f16	0.21795306
155	0xbf28dc58	-0.6596122
156	0x3eeab091	0.45837834
157	0xbf449ef5	-0.7680505
158	0x3e5c0ce6	0.21489295
159	0xbf39df71	-0.7260657
160	0x3f185dfb	0.595184
161	0x3e756bdc	0.23966926
162	0x3f1e5ad8	0.61857367
163	0x3f4f6d62	0.8102628
164	0x3f82a166	1.0205505
165	0x3dbd04d5	0.09229437
166	0x3da83cc8	0.08214718
167	0xbdb579ad	-0.088610984
168	0x3c93c46a	0.018037993
169	0xbd07bd5f	-0.033139583
170	0xbda7569f	-0.081708185
171	0x3c0482af	0.008087798
172	0x3ccf54d5	0.025309006
173	0xba9a63c6	-0.0011779002
174	0xbc9b0b13	-0.018926179
175	0xbe8866df	-0.26640984
176	0xbeec5c57	-0.461642
177	0x3edbd0b0	0.42932653
178	0xbe27ef72	-0.16399935
179	0x3de47cf0	0.111566424
180	0x3f135f08	0.5756688
181	0xbe450185	-0.19238861
182	0x3f2c43a9	0.6729074
183	0x3ec3c212	0.38234
184	0x3f13aa77	0.57681984
185	0x3ea96b26	0.3308956
186	0xbf3bd4a0	-0.73371315
187	0xbf0389f5	-0.5138238
188	0xbf05ff91	-0.5234309
189	0xbf23d9b7	-0.6400408
190	0xbe9679c6	-0.2938978
191	0x3e83a472	0.257114
192	0x3e742deb	0.23845641
193	0x3d106c21	0.03525937
194	0x3eeb5830	0.4596572
195	0xbecf880f	-0.40533492
196	0x3e20060f	0.15627311
197	0x3f21ea0e	0.63247764
198	0x3f0a1c85	0.5394977
199	0x3f239291	0.6389552

arith.constant2 f4 [5]
0	0x3e369834	0.17831498
1	0x3e5c82d2	0.21534279
2	0x3b76e01c	0.00376702
3	0x3ca470df	0.020073352
4	0xbe831f5c	-0.25609863

sequential_1/dense_1_2/BiasAdd/ReadVariableOp f4 [10]
0	0xbd1c53ae	-0.03816574
1	0x3e834a26	0.25642508
2	0x3d991aa9	0.07475788
3	0x3e4297a0	0.19003153
4	0x3f02b361	0.5105496
5	0xbe2ad20b	-0.16681688
6	0x3d098489	0.03357366
7	0x3e94b032	0.29040676
8	0x3ed9a8f3	0.4251171
9	0x3e9ea89f	0.30988023

sequential_1/dense_1/BiasAdd/ReadVariableOp f4 [20]
0	0x3ea3c721	0.3198786
1	0x3d94396a	0.07237513
2	0x3ee404b9	0.44534853
3	0xbdb64705	-0.08900265
4	0x3d341248	0.043962747
5	0xbe4e4cc4	-0.20146471
6	0xbe2e37cb	-0.17013471
7	0x3c9e506b	0.019325456
8	0x3e9287c8	0.28619218
9	0xbcef52c1	-0.029214265
10	0xbf02a6c8	-0.5103574
11	0x3f100e21	0.5627156
12	0xbedeb12e	-0.43494552
13	0xbebfeefd	-0.3748702
14	0xbe3b25ae	-0.18276092
15	0xbecdcdff	-0.40196225
16	0x3c6358a0	0.01387611
17	0x3e9010ae	0.28137726
18	0x3ed69bfd	0.41915885
19	0xbec259b7	-0.37959072

sequential_1/dense_1/MatMul f4 [20, 42]
0	0xbe4d88f8	-0.2007178
1	0x3d9a9334	0.07547608
2	0x3ece769f	0.40324876
3	0x3ea1edf4	0.31626856
4	0x3e4c16de	0.19930598
5	0x3f16621d	0.5874346
6	0x3d47ffbb	0.048827868
7	0x3e6731e8	0.22577631
8	0xbdc11132	-0.09427108
9	0x3db8c022	0.090210214
10	0xbd932bcb	-0.07186087
11	0x3d2ba3d2	0.041904278
12	0xbc0c714c	-0.008571934
13	0x3ec2944b	0.38003764
14	0xbf1787c6	-0.5919155
15	0xbc48cad2	-0.012255387
16	0xbea3b1b2	-0.31971508
17	0x3e2b5c72	0.16734484
18	0xbe2d29b2	-0.16910437
19	0x3e96605b	0.29370388
20	0xbe80a4f0	-0.25125837
21	0x3ef353d4	0.47524893
22	0xbe01b7c4	-0.12667757
23	0x3d9d8a6e	0.07692419
24	0x3d59eee6	0.053206347
25	0x3e8add32	0.27121884
26	0xbe809f40	-0.25121498
27	0x3ecdaa49	0.4016898
28	0xbc43755d	-0.011929837
29	0x3eebc1b4	0.4604622
30	0x3e05f5c0	0.13082027
31	0x3ea4adaa	0.32163745
32	0x3d289f81	0.04116774
33	0x3e0387ca	0.12844768
34	0xbe9f2c32	-0.31088406
35	0xbe220b4b	-0.1582462
36	0xbe0c20cd	-0.13684388
37	0x3e723f7b	0.23657028
38	0xbd9abd23	-0.07555606
39	0x3ec07b2f	0.37593982
40	0xbe535e2f	-0.20641397
41	0xbc98afb3	-0.018638467
42	0xbe47c1c1	-0.19507505
43	0x3e4c98c4	0.1998015
44	0xbef83f33	-0.48485717
45	0xbddfb7da	-0.10923739
46	0xbebf6885	-0.3738443
47	0xbe6d7932	-0.23190764
48	0xbe201ea3	-0.15636687
49	0x3aea3014	0.0017867112
50	0xbdf8f27f	-0.121556275
51	0xbe0ee227	-0.13953458
52	0xbd54af35	-0.051924903
53	0x3dc0b6f5	0.09409896
54	0xbd0f97a0	-0.03505671
55	0xbe4c1f54	-0.19933826
56	0xbe8f7b37	-0.28023693
57	0xbe565a3f	-0.20932864
58	0xbe7f7e80	-0.249506
59	0xbf258119	-0.6465011
60	0xbdce4ba1	-0.10073019
61	0x3c887564	0.016657539
62	0x3d897f54	0.06713739
63	0x3c5156d4	0.012777049
64	0xbe62c487	-0.22145282
65	0xbe39cefe	-0.18145368
66	0xbd6ea5ea	-0.058263697
67	0xbd7ddf97	-0.06198081
68	0xbcea0f54	-0.028571762
69	0x3b9ee8b5	0.004849518
70	0x3e4fe16c	0.20300835
71	0x3d4723d4	0.048618153
72	0xbddd1d99	-0.10796661
73	0x3e5d5f59	0.21618403
74	0xbc950064	-0.018188663
75	0xbd2eb5af	-0.042653736
76	0xb9af30df	-0.00033415013
77	0x3e425ab5	0.18979914
78	0xbc9f1c02	-0.019422535
79	0x3e15fd43	0.14647393
80	0x3c50fce9	0.012755611
81	0x3d9842cb	0.07434615
82	0x3c7f81e3	0.015594932
83	0x3e023846	0.12716779
84	0xbe0887be	-0.13333032
85	0x3e23fb4c	0.16013831
86	0x3ee49415	0.44644228
87	0x3ef7b903	0.4838334
88	0x3e67b74b	0.22628514
89	0x3dea1ee6	0.11431675
90	0x3d0e4c2d	0.034740616
91	0x3e8807a8	0.2656834
92	0xbcece7c5	-0.02891911
93	0x3eb050b4	0.34436572
94	0xbe0f4a34	-0.1399315
95	0x3e3d67af	0.18496583
96	0xbe882736	-0.26592416
97	0x3ec9594b	0.39325938
98	0xbe725f77	-0.2366923
99	0x3daf06ff	0.08546256
100	0xbedacc75	-0.42734113
101	0x3e1e44d0	0.15455937
102	0xbe740de5	-0.23833425
103	0x3c94e1e3	0.018174117
104	0x3dfb0321	0.12256456
105	0x3ebfd07a	0.37463742
106	0x3bbf3fdf	0.0058364714
107	0x3e590e00	0.21196747
108	0xbd140717	-0.036139574
109	0x3ef110a4	0.47083008
110	0xbe95e3ea	-0.29275447
111	0x3e85973e	0.2609195
112	0xbd74dc0a	-0.059780158
113	0x3ef7909c	0.48352516
114	0x3c9ebc33	0.01937685
115	0x3db12e88	0.08651453
116	0xbe98e731	-0.29863885
117	0x3d1f1141	0.038834814
118	0xbeafaee7	-0.34313127
119	0xbdaf0e85	-0.08547691
120	0xbe97131b	-0.29506764
121	0x3d2b6145	0.04184081
122	0xbe29ded0	-0.16588902
123	0x3f02a03b	0.5102574
124	0xbe60cc96	-0.21953043
125	0x3dcfe624	0.10151318
126	0xbdc7481e	-0.09730552
127	0x3dafe7e4	0.085891515
128	0x3f23737f	0.6384811
129	0x3eaf0798	0.3418548
130	0x3eb44b05	0.35213485
131	0x3eb0530b	0.34438357
132	0xbe36ff9d	-0.17870946
133	0x3ed4ec28	0.41586423
134	0xbe0f8ddf	-0.14018963
135	0x3f29d4ce	0.6634034
136	0xbe78ebe3	-0.24308734
137	0x3e3bb1da	0.18329564
138	0xbdcb2273	-0.0991868
139	0xbc98375a	-0.018581081
140	0xbe1834b7	-0.14863859
141	0x3e05c851	0.13064696
142	0xbe8e9625	-0.27848926
143	0x3ee1d03b	0.4410418
144	0xbdd3f68a	-0.10349758
145	0xbd24788b	-0.04015402
146	0xbda9498d	-0.08265982
147	0x3e93e62f	0.28886554
148	0x3e0189df	0.1265025
149	0x3eb10493	0.34573802
150	0x3d836ca3	0.06417205
151	0x3e39438b	0.18092172
152	0xbe9712ac	-0.29506433
153	0xbdb04d2c	-0.08608469
154	0xbc737b67	-0.014860964
155	0x3ec00499	0.37503508
156	0x3e74970c	0.23885745
157	0x3ea35b6f	0.31905696
158	0xbdebf3fd	-0.115211464
159	0xbd3d4c11	-0.04621512
160	0xbdbd050d	-0.09229479
161	0xbd9bef5b	-0.07614013
162	0x3ddc61eb	0.10760864
163	0xbdf5f103	-0.1200886
164	0x3e969794	0.2941252
165	0x3eb7c920	0.35895634
166	0xbe08717e	-0.13324544
167	0x3e6fb5c5	0.23409183
168	0xbe6bcb09	-0.2302667
169	0xbdf4a08c	-0.119446844
170	0xbf0a64bd	-0.54059964
171	0xbe99b966	-0.3002426
172	0xbea1c453	-0.31595096
173	0xbe2b80d2	-0.1674836
174	0xbe1118f4	-0.14169675
175	0xbece6712	-0.4031301
176	0xbe8ba39e	-0.27273268
177	0xbe79fa02	-0.24411777
178	0xbe9cb502	-0.30606848
179	0xbabe9a66	-0.0014541864
180	0xbdc64835	-0.09681741
181	0xbdf130b4	-0.117768675
182	0xbea9ea39	-0.3318651
183	0x3d327bf8	0.043575257
184	0xbe99044d	-0.29886094
185	0x3ddcd060	0.10781932
186	0xbda0353f	-0.07822656
187	0xbe9df124	-0.30848038
188	0xbdfe6511	-0.12421621
189	0x3d7be003	0.06149293
190	0xbdfc4a17	-0.12318819
191	0x3e8872a5	0.26649967
192	0xbe2ab9a5	-0.1667238
193	0x3ea8da90	0.3297925
194	0x3e26c222	0.16284993
195	0xbe488528	-0.19582045
196	0x3d8477a5	0.06468133
197	0x3d449959	0.047997806
198	0xbc1cba1f	-0.009565859
199	0x3e27e407	0.1639558
200	0xbe14e6b6	-0.14541134
201	0x3ea9ef0a	0.33190185
202	0x3edb9c2b	0.42892584
203	0xbe63e3fd	-0.2225494
204	0x3d554803	0.05207063
205	0x3def14c2	0.11673881
206	0xbe77f1c3	-0.24213319
207	0x3e9c58ca	0.3053649
208	0xbee93457	-0.45547745
209	0x3ee21437	0.44156048
210	0x3e8291c6	0.2550184
211	0xbdcaa062	-0.09893872
212	0x3cd5da17	0.02610497
213	0x3eff3014	0.49841368
214	0x3dd868e1	0.10566879
215	0x3eb39469	0.35074165
216	0xbc7ee267	-0.015556908
217	0x3e8d05ba	0.27543432
218	0xbc7f32a7	-0.015576041
219	0x3e8808ca	0.26569206
220	0x3d880890	0.06642258
221	0x3e927f76	0.2861287
222	0xbd9dfbd8	-0.07714051
223	0xb9990919	-0.00029189212
224	0xbe1fe347	-0.15614043
225	0xbebedb54	-0.3727671
226	0xbdfd8208	-0.12378317
227	0xbf45fe80	-0.7734146
228	0xbd228fdb	-0.039687973
229	0x3e10372f	0.14083551
230	0x3d7cd638	0.061727732
231	0x3b3a7aa3	0.0028454445
232	0x3d27eed8	0.040999264
233	0xbe7bcc74	-0.24589711
234	0x3db9d0ec	0.09073052
235	0xbc96c2af	-0.01840338
236	0xbdeffd86	-0.11718278
237	0x3e200c7d	0.15629764
238	0x3e6727d4	0.22573787
239	0x3e2d0646	0.16896924
240	0x3e51a352	0.20472458
241	0xbd6fe9eb	-0.05857269
242	0x3d87528c	0.066075414
243	0xbb1a2c74	-0.0023525031
244	0xbd13ca15	-0.036081392
245	0x3e10face	0.14158174
246	0x3d9a707d	0.07540987
247	0x3d9d59e9	0.076831646
248	0x3e4929dc	0.19644874
249	0xbd811010	-0.06301892
250	0x3caccc7c	0.0210936
251	0xbe954daa	-0.29160815
252	0x3e76972c	0.24081105
253	0xbd8a40a0	-0.067506075
254	0xbf3afeb9	-0.73044926
255	0xbd56d104	-0.052445427
